…
[38;5;15m    [39m[38;5;204mENABLED[39m[38;5;15m:[39m[38;5;15m [39m[38;5;141mfalse[39m
[38;5;15m    [39m[38;5;204mNUM_ITER[39m[38;5;15m:[39m[38;5;15m [39m[38;5;141m200[39m
[38;5;204mVERSION[39m[38;5;15m:[39m[38;5;15m [39m[38;5;141m2[39m
[38;5;204mVIS_PERIOD[39m[38;5;15m:[39m[38;5;15m [39m[38;5;141m5000[39m

[12/24 12:40:30] detectron2 INFO: Full config saved to ./work_dir/HRSC2016/EARL_VAF_R50_800_bs16/config.yaml
[12/24 12:40:31] d2.utils.env INFO: Using a generated random seed 31068938
[12/24 12:40:31] d2.engine.defaults INFO: Model:
RFCOS_EARL(
  (backbone): FPN(
    (fpn_lateral3): Conv2d(
      512, 256, kernel_size=(1, 1), stride=(1, 1), bias=False
      (norm): GroupNorm(32, 256, eps=1e-05, affine=True)
    )
    (fpn_output3): Conv2d(
      256, 256, kernel_size=(3, 3), stride=(1, 1), padding=(1, 1), bias=False
      (norm): GroupNorm(32, 256, eps=1e-05, affine=True)
    )
    (fpn_lateral4): Conv2d(
      1024, 256, kernel_size=(1, 1), stride=(1, 1), bias=False
      (norm): GroupNorm(32, 256, eps=1e-05, affine=True)
    )
    (fpn_output4): Conv2d(
      256, 256, kernel_size=(3, 3), stride=(1, 1), padding=(1, 1), bias=False
      (norm): GroupNorm(32, 256, eps=1e-05, affine=True)
    )
    (fpn_lateral5): Conv2d(
      2048, 256, kernel_size=(1, 1), stride=(1, 1), bias=False
      (norm): GroupNorm(32, 256, eps=1e-05, affine=True)
    )
    (fpn_output5): Conv2d(
      256, 256, kernel_size=(3, 3), stride=(1, 1), padding=(1, 1), bias=False
      (norm): GroupNorm(32, 256, eps=1e-05, affine=True)
    )
    (top_block): LastLevelP6P7(
      (p6): Conv2d(2048, 256, kernel_size=(3, 3), stride=(2, 2), padding=(1, 1))
      (p7): Conv2d(256, 256, kernel_size=(3, 3), stride=(2, 2), padding=(1, 1))
    )
    (bottom_up): ResNet(
      (stem): BasicStem(
        (conv1): Conv2d(
          3, 64, kernel_size=(7, 7), stride=(2, 2), padding=(3, 3), bias=False
          (norm): GroupNorm(32, 64, eps=1e-05, affine=True)
        )
      )
      (res2): Sequential(
        (0): BottleneckBlock(
          (shortcut): Conv2d(
            64, 256, kernel_size=(1, 1), stride=(1, 1), bias=False
            (norm): GroupNorm(32, 256, eps=1e-05, affine=True)
          )
          (conv1): Conv2d(
            64, 64, kernel_size=(1, 1), stride=(1, 1), bias=False
            (norm): GroupNorm(32, 64, eps=1e-05, affine=True)
          )
          (conv2): Conv2d(
            64, 64, kernel_size=(3, 3), stride=(1, 1), padding=(1, 1), bias=False
            (norm): GroupNorm(32, 64, eps=1e-05, affine=True)
          )
          (conv3): Conv2d(
            64, 256, kernel_size=(1, 1), stride=(1, 1), bias=False
            (norm): GroupNorm(32, 256, eps=1e-05, affine=True)
          )
        )
        (1): BottleneckBlock(
          (conv1): Conv2d(
            256, 64, kernel_size=(1, 1), stride=(1, 1), bias=False
            (norm): GroupNorm(32, 64, eps=1e-05, affine=True)
          )
          (conv2): Conv2d(
            64, 64, kernel_size=(3, 3), stride=(1, 1), padding=(1, 1), bias=False
            (norm): GroupNorm(32, 64, eps=1e-05, affine=True)
          )
          (conv3): Conv2d(
            64, 256, kernel_size=(1, 1), stride=(1, 1), bias=False
            (norm): GroupNorm(32, 256, eps=1e-05, affine=True)
          )
        )
        (2): BottleneckBlock(
          (conv1): Conv2d(
            256, 64, kernel_size=(1, 1), stride=(1, 1), bias=False
            (norm): GroupNorm(32, 64, eps=1e-05, affine=True)
          )
          (conv2): Conv2d(
            64, 64, kernel_size=(3, 3), stride=(1, 1), padding=(1, 1), bias=False
            (norm): GroupNorm(32, 64, eps=1e-05, affine=True)
          )
          (conv3): Conv2d(
            64, 256, kernel_size=(1, 1), stride=(1, 1), bias=False
            (norm): GroupNorm(32, 256, eps=1e-05, affine=True)
          )
        )
      )
      (res3): Sequential(
        (0): BottleneckBlock(
          (shortcut): Conv2d(
            256, 512, kernel_size=(1, 1), stride=(2, 2), bias=False
            (norm): GroupNorm(32, 512, eps=1e-05, affine=True)
          )
          (conv1): Conv2d(
            256, 128, kernel_size=(1, 1), stride=(1, 1), bias=False
            (norm): GroupNorm(32, 128, eps=1e-05, affine=True)
          )
          (conv2): Conv2d(
            128, 128, kernel_size=(3, 3), stride=(2, 2), padding=(1, 1), bias=False
            (norm): GroupNorm(32, 128, eps=1e-05, affine=True)
          )
          (conv3): Conv2d(
            128, 512, kernel_size=(1, 1), stride=(1, 1), bias=False
            (norm): GroupNorm(32, 512, eps=1e-05, affine=True)
          )
        )
        (1): BottleneckBlock(
          (conv1): Conv2d(
            512, 128, kernel_size=(1, 1), stride=(1, 1), bias=False
            (norm): GroupNorm(32, 128, eps=1e-05, affine=True)
          )
          (conv2): Conv2d(
            128, 128, kernel_size=(3, 3), stride=(1, 1), padding=(1, 1), bias=False
            (norm): GroupNorm(32, 128, eps=1e-05, affine=True)
          )
          (conv3): Conv2d(
            128, 512, kernel_size=(1, 1), stride=(1, 1), bias=False
            (norm): GroupNorm(32, 512, eps=1e-05, affine=True)
          )
        )
        (2): BottleneckBlock(
          (conv1): Conv2d(
            512, 128, kernel_size=(1, 1), stride=(1, 1), bias=False
            (norm): GroupNorm(32, 128, eps=1e-05, affine=True)
          )
          (conv2): Conv2d(
            128, 128, kernel_size=(3, 3), stride=(1, 1), padding=(1, 1), bias=False
            (norm): GroupNorm(32, 128, eps=1e-05, affine=True)
          )
          (conv3): Conv2d(
            128, 512, kernel_size=(1, 1), stride=(1, 1), bias=False
            (norm): GroupNorm(32, 512, eps=1e-05, affine=True)
          )
        )
        (3): BottleneckBlock(
          (conv1): Conv2d(
            512, 128, kernel_size=(1, 1), stride=(1, 1), bias=False
            (norm): GroupNorm(32, 128, eps=1e-05, affine=True)
          )
          (conv2): Conv2d(
            128, 128, kernel_size=(3, 3), stride=(1, 1), padding=(1, 1), bias=False
            (norm): GroupNorm(32, 128, eps=1e-05, affine=True)
          )
          (conv3): Conv2d(
            128, 512, kernel_size=(1, 1), stride=(1, 1), bias=False
            (norm): GroupNorm(32, 512, eps=1e-05, affine=True)
          )
        )
      )
      (res4): Sequential(
        (0): BottleneckBlock(
          (shortcut): Conv2d(
            512, 1024, kernel_size=(1, 1), stride=(2, 2), bias=False
            (norm): GroupNorm(32, 1024, eps=1e-05, affine=True)
          )
          (conv1): Conv2d(
            512, 256, kernel_size=(1, 1), stride=(1, 1), bias=False
            (norm): GroupNorm(32, 256, eps=1e-05, affine=True)
          )
          (conv2): Conv2d(
            256, 256, kernel_size=(3, 3), stride=(2, 2), padding=(1, 1), bias=False
            (norm): GroupNorm(32, 256, eps=1e-05, affine=True)
          )
          (conv3): Conv2d(
            256, 1024, kernel_size=(1, 1), stride=(1, 1), bias=False
            (norm): GroupNorm(32, 1024, eps=1e-05, affine=True)
          )
        )
        (1): BottleneckBlock(
          (conv1): Conv2d(
            1024, 256, kernel_size=(1, 1), stride=(1, 1), bias=False
            (norm): GroupNorm(32, 256, eps=1e-05, affine=True)
          )
          (conv2): Conv2d(
            256, 256, kernel_size=(3, 3), stride=(1, 1), padding=(1, 1), bias=False
            (norm): GroupNorm(32, 256, eps=1e-05, affine=True)
          )
          (conv3): Conv2d(
            256, 1024, kernel_size=(1, 1), stride=(1, 1), bias=False
            (norm): GroupNorm(32, 1024, eps=1e-05, affine=True)
          )
        )
        (2): BottleneckBlock(
          (conv1): Conv2d(
            1024, 256, kernel_size=(1, 1), stride=(1, 1), bias=False
            (norm): GroupNorm(32, 256, eps=1e-05, affine=True)
          )
          (conv2): Conv2d(
            256, 256, kernel_size=(3, 3), stride=(1, 1), padding=(1, 1), bias=False
            (norm): GroupNorm(32, 256, eps=1e-05, affine=True)
          )
          (conv3): Conv2d(
            256, 1024, kernel_size=(1, 1), stride=(1, 1), bias=False
            (norm): GroupNorm(32, 1024, eps=1e-05, affine=True)
          )
        )
        (3): BottleneckBlock(
          (conv1): Conv2d(
            1024, 256, kernel_size=(1, 1), stride=(1, 1), bias=False
            (norm): GroupNorm(32, 256, eps=1e-05, affine=True)
          )
          (conv2): Conv2d(
            256, 256, kernel_size=(3, 3), stride=(1, 1), padding=(1, 1), bias=False
            (norm): GroupNorm(32, 256, eps=1e-05, affine=True)
          )
          (conv3): Conv2d(
            256, 1024, kernel_size=(1, 1), stride=(1, 1), bias=False
            (norm): GroupNorm(32, 1024, eps=1e-05, affine=True)
          )
        )
        (4): BottleneckBlock(
          (conv1): Conv2d(
            1024, 256, kernel_size=(1, 1), stride=(1, 1), bias=False
            (norm): GroupNorm(32, 256, eps=1e-05, affine=True)
          )
          (conv2): Conv2d(
            256, 256, kernel_size=(3, 3), stride=(1, 1), padding=(1, 1), bias=False
            (norm): GroupNorm(32, 256, eps=1e-05, affine=True)
          )
          (conv3): Conv2d(
            256, 1024, kernel_size=(1, 1), stride=(1, 1), bias=False
            (norm): GroupNorm(32, 1024, eps=1e-05, affine=True)
          )
        )
        (5): BottleneckBlock(
          (conv1): Conv2d(
            1024, 256, kernel_size=(1, 1), stride=(1, 1), bias=False
            (norm): GroupNorm(32, 256, eps=1e-05, affine=True)
          )
          (conv2): Conv2d(
            256, 256, kernel_size=(3, 3), stride=(1, 1), padding=(1, 1), bias=False
            (norm): GroupNorm(32, 256, eps=1e-05, affine=True)
          )
          (conv3): Conv2d(
            256, 1024, kernel_size=(1, 1), stride=(1, 1), bias=False
            (norm): GroupNorm(32, 1024, eps=1e-05, affine=True)
          )
        )
      )
      (res5): Sequential(
        (0): BottleneckBlock(
          (shortcut): Conv2d(
            1024, 2048, kernel_size=(1, 1), stride=(2, 2), bias=False
            (norm): GroupNorm(32, 2048, eps=1e-05, affine=True)
          )
          (conv1): Conv2d(
            1024, 512, kernel_size=(1, 1), stride=(1, 1), bias=False
            (norm): GroupNorm(32, 512, eps=1e-05, affine=True)
          )
          (conv2): Conv2d(
            512, 512, kernel_size=(3, 3), stride=(2, 2), padding=(1, 1), bias=False
            (norm): GroupNorm(32, 512, eps=1e-05, affine=True)
          )
          (conv3): Conv2d(
            512, 2048, kernel_size=(1, 1), stride=(1, 1), bias=False
            (norm): GroupNorm(32, 2048, eps=1e-05, affine=True)
          )
        )
        (1): BottleneckBlock(
          (conv1): Conv2d(
            2048, 512, kernel_size=(1, 1), stride=(1, 1), bias=False
            (norm): GroupNorm(32, 512, eps=1e-05, affine=True)
          )
          (conv2): Conv2d(
            512, 512, kernel_size=(3, 3), stride=(1, 1), padding=(1, 1), bias=False
            (norm): GroupNorm(32, 512, eps=1e-05, affine=True)
          )
          (conv3): Conv2d(
            512, 2048, kernel_size=(1, 1), stride=(1, 1), bias=False
            (norm): GroupNorm(32, 2048, eps=1e-05, affine=True)
          )
        )
        (2): BottleneckBlock(
          (conv1): Conv2d(
            2048, 512, kernel_size=(1, 1), stride=(1, 1), bias=False
            (norm): GroupNorm(32, 512, eps=1e-05, affine=True)
          )
          (conv2): Conv2d(
            512, 512, kernel_size=(3, 3), stride=(1, 1), padding=(1, 1), bias=False
            (norm): GroupNorm(32, 512, eps=1e-05, affine=True)
          )
          (conv3): Conv2d(
            512, 2048, kernel_size=(1, 1), stride=(1, 1), bias=False
            (norm): GroupNorm(32, 2048, eps=1e-05, affine=True)
          )
        )
      )
    )
  )
  (head): RFCOSHead(
    (cls_subnet): Sequential(
      (0): Conv2d(256, 256, kernel_size=(3, 3), stride=(1, 1), padding=(1, 1))
      (1): GroupNorm(32, 256, eps=1e-05, affine=True)
      (2): ReLU()
      (3): Conv2d(256, 256, kernel_size=(3, 3), stride=(1, 1), padding=(1, 1))
      (4): GroupNorm(32, 256, eps=1e-05, affine=True)
      (5): ReLU()
      (6): Conv2d(256, 256, kernel_size=(3, 3), stride=(1, 1), padding=(1, 1))
      (7): GroupNorm(32, 256, eps=1e-05, affine=True)
      (8): ReLU()
      (9): Conv2d(256, 256, kernel_size=(3, 3), stride=(1, 1), padding=(1, 1))
      (10): GroupNorm(32, 256, eps=1e-05, affine=True)
      (11): ReLU()
    )
    (bbox_subnet): Sequential(
      (0): Conv2d(256, 256, kernel_size=(3, 3), stride=(1, 1), padding=(1, 1))
      (1): GroupNorm(32, 256, eps=1e-05, affine=True)
      (2): ReLU()
      (3): Conv2d(256, 256, kernel_size=(3, 3), stride=(1, 1), padding=(1, 1))
      (4): GroupNorm(32, 256, eps=1e-05, affine=True)
      (5): ReLU()
      (6): Conv2d(256, 256, kernel_size=(3, 3), stride=(1, 1), padding=(1, 1))
      (7): GroupNorm(32, 256, eps=1e-05, affine=True)
      (8): ReLU()
      (9): Conv2d(256, 256, kernel_size=(3, 3), stride=(1, 1), padding=(1, 1))
      (10): GroupNorm(32, 256, eps=1e-05, affine=True)
      (11): ReLU()
    )
    (cls_score): Conv2d(256, 1, kernel_size=(3, 3), stride=(1, 1), padding=(1, 1))
    (bbox_pred): Conv2d(256, 5, kernel_size=(3, 3), stride=(1, 1), padding=(1, 1))
  )
)
